…
    # Plot training and validation loss
    plt.subplot(1, 2, 2)
    plt.plot(train_loss, label='Training Loss')
    plt.plot(val_loss, label='Validation Loss')
    plt.title('Training and Validation Loss')
    plt.xlabel('Epoch')
    plt.ylabel('Loss')
    plt.legend()

    plt.suptitle("Deep Neural Network without dropout")

    plt.tight_layout()
    plt.show()

    Model: "sequential"
    _________________________________________________________________
     Layer (type)                Output Shape              Param #   
    =================================================================
     conv2d (Conv2D)             (None, 64, 64, 64)        1792      
                                                                     
     batch_normalization (Batch  (None, 64, 64, 64)        256       
     Normalization)                                                  
                                                                     
     activation (Activation)     (None, 64, 64, 64)        0         
                                                                     
     conv2d_1 (Conv2D)           (None, 64, 64, 64)        36928     
                                                                     
     batch_normalization_1 (Bat  (None, 64, 64, 64)        256       
     chNormalization)                                                
                                                                     
     activation_1 (Activation)   (None, 64, 64, 64)        0         
                                                                     
     max_pooling2d (MaxPooling2  (None, 32, 32, 64)        0         
     D)                                                              
                                                                     
     conv2d_2 (Conv2D)           (None, 32, 32, 128)       73856     
                                                                     
     batch_normalization_2 (Bat  (None, 32, 32, 128)       512       
     chNormalization)                                                
                                                                     
     activation_2 (Activation)   (None, 32, 32, 128)       0         
                                                                     
     conv2d_3 (Conv2D)           (None, 32, 32, 128)       147584    
                                                                     
     batch_normalization_3 (Bat  (None, 32, 32, 128)       512       
     chNormalization)                                                
                                                                     
     activation_3 (Activation)   (None, 32, 32, 128)       0         
                                                                     
     max_pooling2d_1 (MaxPoolin  (None, 16, 16, 128)       0         
     g2D)                                                            
                                                                     
     conv2d_4 (Conv2D)           (None, 16, 16, 256)       295168    
                                                                     
     batch_normalization_4 (Bat  (None, 16, 16, 256)       1024      
     chNormalization)                                                
                                                                     
     activation_4 (Activation)   (None, 16, 16, 256)       0         
                                                                     
     conv2d_5 (Conv2D)           (None, 16, 16, 512)       1180160   
                                                                     
     batch_normalization_5 (Bat  (None, 16, 16, 512)       2048      
     chNormalization)                                                
                                                                     
     activation_5 (Activation)   (None, 16, 16, 512)       0         
                                                                     
     max_pooling2d_2 (MaxPoolin  (None, 8, 8, 512)         0         
     g2D)                                                            
                                                                     
     flatten (Flatten)           (None, 32768)             0         
                                                                     
     dense (Dense)               (None, 4096)              134221824 
                                                                     
     batch_normalization_6 (Bat  (None, 4096)              16384     
     chNormalization)                                                
                                                                     
     activation_6 (Activation)   (None, 4096)              0         
                                                                     
     dense_1 (Dense)             (None, 1024)              4195328   
                                                                     
     batch_normalization_7 (Bat  (None, 1024)              4096      
     chNormalization)                                                
                                                                     
     activation_7 (Activation)   (None, 1024)              0         
                                                                     
     dense_2 (Dense)             (None, 200)               205000    
                                                                     
    =================================================================
    Total params: 140382728 (535.52 MB)
    Trainable params: 140370184 (535.47 MB)
    Non-trainable params: 12544 (49.00 KB)
    _________________________________________________________________
    Epoch 1/15
    390/390 [==============================] - 815s 2s/step - loss: 16.0563 - accuracy: 0.0810 - val_loss: 14.8511 - val_accuracy: 0.0736
…
