…
        epochs=15,  # Train for 15 epochs
        validation_data=validation_generator,
        validation_steps=validation_generator.n // BATCH_SIZE,
        callbacks=[early_stopping, reduce_lr]
    )

    WARNING:absl:`lr` is deprecated in Keras optimizer, please use `learning_rate` or use the legacy optimizer, e.g.,tf.keras.optimizers.legacy.Adam.

    Model: "sequential"
    _________________________________________________________________
     Layer (type)                Output Shape              Param #   
    =================================================================
     conv2d (Conv2D)             (None, 64, 64, 64)        1792      
                                                                     
     batch_normalization (Batch  (None, 64, 64, 64)        256       
     Normalization)                                                  
                                                                     
     activation (Activation)     (None, 64, 64, 64)        0         
                                                                     
     max_pooling2d (MaxPooling2  (None, 32, 32, 64)        0         
     D)                                                              
                                                                     
     conv2d_1 (Conv2D)           (None, 32, 32, 128)       73856     
                                                                     
     batch_normalization_1 (Bat  (None, 32, 32, 128)       512       
     chNormalization)                                                
                                                                     
     activation_1 (Activation)   (None, 32, 32, 128)       0         
                                                                     
     max_pooling2d_1 (MaxPoolin  (None, 16, 16, 128)       0         
     g2D)                                                            
                                                                     
     conv2d_2 (Conv2D)           (None, 16, 16, 256)       295168    
                                                                     
     batch_normalization_2 (Bat  (None, 16, 16, 256)       1024      
     chNormalization)                                                
                                                                     
     activation_2 (Activation)   (None, 16, 16, 256)       0         
                                                                     
     max_pooling2d_2 (MaxPoolin  (None, 8, 8, 256)         0         
     g2D)                                                            
                                                                     
     flatten (Flatten)           (None, 16384)             0         
                                                                     
     dense (Dense)               (None, 512)               8389120   
                                                                     
     batch_normalization_3 (Bat  (None, 512)               2048      
     chNormalization)                                                
                                                                     
     activation_3 (Activation)   (None, 512)               0         
                                                                     
     dropout (Dropout)           (None, 512)               0         
                                                                     
     dense_1 (Dense)             (None, 200)               102600    
                                                                     
    =================================================================
    Total params: 8866376 (33.82 MB)
    Trainable params: 8864456 (33.82 MB)
    Non-trainable params: 1920 (7.50 KB)
    _________________________________________________________________
    Epoch 1/15
    1562/1562 [==============================] - 501s 320ms/step - loss: 4.4841 - accuracy: 0.0925 - val_loss: 4.0456 - val_accuracy: 0.1428 - lr: 0.0010
…
